2019-01-11 15:20:04,839 :{'n_epochs': 200, 'batch_size': 64, 'lr': 0.0002, 'b1': 0.5, 'b2': 0.999, 'n_cpu': 8, 'latent_dim': 128, 'img_size': 32, 'n_critic': 5, 'clip_value': 0.01, 'sample_interval': 100, 'log_interval': 100, 'modelsave_interval': 1, 'dataset': 'mnist', 'num_filters': 128, 'saveDir': None, 'resume': None, 'logIS': True, 'loadDir': None}
2019-01-11 15:20:04,840 :WGANGenerator32(
  (pre_layer): Linear(in_features=128, out_features=16384, bias=True)
  (main): Sequential(
    (0): ConvTranspose2d(1024, 512, kernel_size=(4, 4), stride=(2, 2), padding=(1, 1), bias=False)
    (1): BatchNorm2d(512, eps=1e-05, momentum=0.1, affine=True, track_running_stats=True)
    (2): ReLU(inplace)
    (3): ConvTranspose2d(512, 128, kernel_size=(4, 4), stride=(2, 2), padding=(1, 1), bias=False)
    (4): BatchNorm2d(128, eps=1e-05, momentum=0.1, affine=True, track_running_stats=True)
    (5): ReLU(inplace)
    (6): ConvTranspose2d(128, 1, kernel_size=(4, 4), stride=(2, 2), padding=(1, 1), bias=False)
    (7): Tanh()
  )
)
2019-01-11 15:20:04,840 :WGANDiscriminator32_(
  (main): Sequential(
    (0): Conv2d(1, 128, kernel_size=(4, 4), stride=(2, 2), padding=(1, 1), bias=False)
    (1): LeakyReLU(negative_slope=0.2, inplace)
    (2): Conv2d(128, 256, kernel_size=(4, 4), stride=(2, 2), padding=(1, 1), bias=False)
    (3): BatchNorm2d(256, eps=1e-05, momentum=0.1, affine=True, track_running_stats=True)
    (4): LeakyReLU(negative_slope=0.2, inplace)
    (5): Conv2d(256, 512, kernel_size=(4, 4), stride=(2, 2), padding=(1, 1), bias=False)
    (6): BatchNorm2d(512, eps=1e-05, momentum=0.1, affine=True, track_running_stats=True)
    (7): LeakyReLU(negative_slope=0.2, inplace)
    (8): Conv2d(512, 1024, kernel_size=(4, 4), stride=(1, 1), bias=False)
    (9): BatchNorm2d(1024, eps=1e-05, momentum=0.1, affine=True, track_running_stats=True)
    (10): LeakyReLU(negative_slope=0.2, inplace)
  )
  (avgpool): AvgPool2d(kernel_size=2, stride=1, padding=0)
  (linear): Linear(in_features=1024, out_features=1, bias=True)
)
2019-01-11 15:20:23,895 :[Epoch: 0/200] [Inception Score: 1.22] [Max Score Ever: 1.22]
2019-01-11 15:20:24,437 :[Epoch: 0/200] [Batch: 0/938] [D loss: 4.014897] [G loss: 0.005202] [ElapsedTime: 19.58 [sec]]
2019-01-11 15:20:31,687 :[Epoch: 0/200] [Batch: 100/938] [D loss: 0.008652] [G loss: 0.045665] [ElapsedTime: 26.83 [sec]]
2019-01-11 15:20:38,881 :[Epoch: 0/200] [Batch: 200/938] [D loss: -0.517482] [G loss: 0.394933] [ElapsedTime: 34.02 [sec]]
…
